chatbot/data.pth (torch, 5674 bytes, 6 tensors)

l1.weight f4 [8, 54]
0.5248602 0.3167983 -0.23697862 0.35565633 -0.23687682 0.26375768 0.75780845 -0.74684596
-0.22684425 -0.11843098 -0.4074897 -0.77405304 -0.3073109 0.57814854 0.77101487 -0.21929769
0.45397052 0.62522125 -0.7810897 0.80642855 0.5902417 0.3279033 0.7371695 0.7411512
0.6914041 0.19157426 0.2862202 0.24388233 0.3015943 -0.27759454 0.6640192 0.31146604
-0.11516495 0.85369945 -0.46256244 -0.39400777 -0.23161694 0.5248295 -0.47832042 0.15279631
0.56623805 0.15773903 -0.7705574 -0.5921986 0.06520465 0.8348095 0.3701066 0.4467113
0.5573356 0.71515554 -0.18069386 0.4522753 0.2720197 0.6010875 -0.37513196 0.22237486
-0.1909808 0.36103708 -0.36626166 0.30506185 0.69345087 0.48167795 -0.26354247 -0.28609955
-0.6247282 0.67548287 -0.17392235 0.56670976 0.23003575 -0.38127443 0.3079748 0.5966235
0.4848595 0.49666062 0.65804327 -0.17678028 0.62507516 0.5532136 0.46914825 -0.35808063
0.25678083 0.25832453 0.1705928 0.39201298 0.06318646 0.024499327 -0.4132726 -0.71740466
-0.31524587 -0.22508487 -0.15665634 0.5200226 0.4422178 0.16749348 0.024660656 -0.46407858
-0.2479492 1.1841103 -0.15145847 -0.76525795 -0.1719071 0.4202154 -0.5110718 -0.07935045
0.8280268 0.16316149 0.21047035 0.36870155 0.44080102 0.285959 0.24233958 0.16667606
0.22769316 0.23916508 0.32919952 -0.40476474 0.087067164 0.16202715 0.19743718 -0.548056
0.15362737 0.072778255 0.21080902 0.35840124 0.39180192 0.17131318 -0.40104297 0.34239483
0.38446987 0.48641455 0.35106316 0.46395963 0.36608234 0.5089685 0.3465037 0.221014
0.3480741 -0.24672629 0.1811823 0.39601046 0.20150547 0.70281166 -0.7049645 0.1908972
0.08177029 0.6786002 -0.11843221 0.079348505 0.053684644 -0.8149981 0.004310848 -0.86175424
0.27784246 0.8078914 0.4992129 0.22756934 0.5445903 -0.8170682 0.026955638 -0.040357478
0.28494582 0.305775 -0.12150533 0.021312544 -0.18982711 0.38711002 -0.00051136763 -0.05833417
0.548341 0.21736875 -0.027980475 -0.03822892 -0.32297286 -0.5287171 -0.1673979 0.3372262
0.42195407 -0.28594205 0.13898033 0.28335696 0.35455814 0.5166491 0.5269227 -0.18181776
0.5832192 0.81765467 0.35236144 -0.07133373 0.40831593 -0.098337755 0.11858516 0.014054425
0.16145983 0.0029942866 -0.022791205 -0.50617033 -0.533896 -0.022780605 -0.11580824 -0.46709085
0.14560471 -0.0054476014 0.2128041 1.0640197 -0.53413385 0.91883934 0.035552952 -0.47111362
-0.20298699 0.31699687 -0.43472892 1.1481344 0.02806844 0.4714322 0.07512886 0.480822
0.38745484 -0.039914344 -0.050496764 0.12695402 -0.18720901 -0.03758898 0.4110877 -0.44425774
-0.26040584 -0.32215253 0.09151239 -0.32516205 -0.11496414 0.42329714 0.9370039 -0.3259762
0.32542133 0.3580662 -0.4612898 0.39705274 0.5827525 0.35741943 0.57755214 0.29890993
0.78183866 0.52356106 0.107768126 -0.05838 0.057570774 -0.22967315 0.88147604 0.2352943
0.13763186 0.45596653 -0.11931125 -0.1670899 -0.2871273 -0.44443294 -0.21616358 -0.061016764
00000000: 3d5d 063f 6333 a23e 86aa 72be 9618 b63e
00000010: d68f 72be 3f0b 873e bcff 413f 4c31 3fbf
00000020: dc49 68be f18b f2bd 7da2 d0be 5728 46bf
00000030: db57 9dbe 8b01 143f 3b61 453f 938f 60be
00000040: d36e e83e 800e 203f 7ff5 47bf 1a72 4e3f
00000050: 141a 173f f1e2 a73e 24b7 3c3f 16bc 3d3f
00000060: dcff 303f 0b2c 443e 748b 923e 4abc 793e
00000070: 916a 9a3e df20 8ebe 2afd 293f 7a78 9f3e
00000080: 9adb ebbd 0c8c 5a3f fcd4 ecbe 63bb c9be
00000090: fe2c 6dbe 3a5b 063f 6ae6 f4be a376 1c3e
000000a0: faf4 103f 5786 213e 4043 45bf 549a 17bf
000000b0: 048a 853d 13b6 553f 9d7e bd3e 58b7 e43e
000000c0: 8cad 0e3f 6f14 373f d007 39be a190 e73e
000000d0: 2b46 8b3e dfe0 193f 4c11 c0be 3cb6 633e
000000e0: 7990 43be dad9 b83e a686 bbbe 1131 9c3e
000000f0: ff85 313f 7e9e f63e 0aef 86be a47b 92be
00000100: 30ee 1fbf 72ec 2c3f b318 32be e413 113f
00000110: 7e8e 6b3e 6736 c3be dfae 9d3e 51bc 183f
00000120: 813f f83e 4d4a fe3e 8675 283f e405 35be
00000130: ed04 203f 689f 0d3f 3334 f03e 5856 b7be
00000140: c778 833e 1d43 843e e1af 2e3e edb5 c83e
00000150: e767 813d d0b2 c83c 7798 d3be d5a7 37bf
00000160: e867 a1be a67c 66be 856a 20be 3320 053f
00000170: 5f6a e23e 6983 2b3e 2505 ca3c b59b edbe
00000180: 65e6 7dbe ed90 973f ee17 1bbe f2e7 43bf
00000190: 6a08 30be 7926 d73e 9ad5 02bf 7d82 a2bd
000001a0: 90f9 533f ce13 273e 8a85 573e 73c6 bc3e
000001b0: acb0 e13e 3869 923e de27 783e 21ad 2a3e
000001c0: 6528 693e b1e7 743e d78c a83e 533d cfbe
000001d0: 4550 b23d 72ea 253e f92c 4a3e 664d 0cbf
000001e0: 7e50 1d3e c40c 953d 52de 573e 5e80 b73e
000001f0: 439a c83e b96c 2f3e 8155 cdbe 604e af3e
00000200: 3cd9 c43e 540b f93e 8dbe b33e 1e8c ed3e
00000210: 256f bb3e c24b 023f ef68 b13e 7e51 623e
00000220: c536 b23e d1a5 7cbe da87 393e e2c1 ca3e
00000230: 7357 4e3e 77eb 333f 8e78 34bf 8e7a 433e
00000240: 2f77 a73d beb8 2d3f 968c f2bd 7881 a23d
00000250: 6ee4 5b3d b7a3 50bf 0442 8d3b ed9b 5cbf
00000260: 5e41 8e3e f9d1 4e3f d598 ff3e f007 693e
00000270: 456a 0b3f 622b 51bf 12d2 dc3c e24d 25bd
00000280: 6be4 913e 8a8e 9c3e c9d7 f8bd a597 ae3c
00000290: 0a62 42be 4933 c63e 4d0d 06ba d0ef 6ebd
000002a0: 1360 0c3f ea95 5e3e 4f37 e5bc ee95 1cbd
000002b0: b35c a5be 015a 07bf 5b6a 2bbe eaa8 ac3e
000002c0: 5d0a d83e ff66 92be dc50 0e3e 2a14 913e
000002d0: a588 b53e 1e43 043f 68e4 063f 6f2e 3abe
000002e0: da4d 153f d151 513f b868 b43e 6b17 92bd
000002f0: c90e d13e 4e65 c9bd c7dc f23d 8844 663c
00000300: ba55 253e cb3b 443b 9fb4 babc 6194 01bf
00000310: 69ad 08bf 649e babc df2c edbd 8826 efbe
00000320: 6719 153e cb81 b2bb 51e9 593e cc31 883f
00000330: ffbc 08bf 0e39 6b3f f99f 113d ce35 f1be
00000340: d2db 4fbe 6a4d a23e ca94 debe 11f6 923f
00000350: c9ef e53c 905f f13e 29dd 993d 4d2e f63e
00000360: 7b60 c63e 397d 23bd b2d5 4ebd 3c00 023e
00000370: b8b3 3fbe e7f6 19bd 167a d23e c075 e3be
00000380: ea53 85be 2df1 a4be d96a bb3d a47b a6be
00000390: 5272 ebbd 67ba d83e 7ddf 6f3f 5ae6 a6be
000003a0: a09d a63e 7454 b73e 2d2e ecbe 7f4a cb3e
000003b0: 452f 153f aeff b63e 75da 133f b90a 993e
000003c0: 9426 483f 1908 063f 89b5 dc3d de1f 6fbd
000003d0: 55cf 6b3d 702f 6bbe 6aa8 613f fdf0 703e
000003e0: 5eef 0c3e 7274 e93e 7559 f4bd 9d19 2bbe
000003f0: 5902 93be b78c e3be fc59 5dbe b7ec 79bd

l1.bias f4 [8]
0.80168384 1.0063117 0.78800577 0.50611204 0.46134797 0.55224717 0.6681101 0.6427638
00000000: 273b 4d3f d2ce 803f bfba 493f 8f90 013f
00000010: cd35 ec3e 1260 0d3f 4309 2b3f 2b8c 243f

l2.weight f4 [8, 8]
-0.12592396 0.07181276 0.17772022 0.038559057 -0.32119375 -0.16020712 -0.2565516 -0.38369393
0.7860053 1.3943918 -0.023945762 0.8593136 -1.4634387 -0.2560673 1.9249673 -0.70476377
-0.79045683 1.946831 0.93747604 -0.58828586 -1.1914433 -1.165434 1.3355336 1.3420118
0.81355244 0.31956157 -0.65096253 2.2917082 0.90146846 -0.081685096 0.99817216 -0.4749164
1.5783978 -0.35810506 1.7983841 0.4240974 0.030909555 -1.0814955 1.160658 -0.31507906
1.4695055 -0.28905332 1.5548255 -0.5715304 1.1438429 0.32522172 0.33996713 1.8216531
0.018939644 0.16069344 0.9640479 0.8038401 1.1124351 -0.8928804 1.1766081 -1.3593448
0.950981 1.1388062 -0.19431299 0.69443774 1.2609062 1.3455803 -0.90661544 -0.9918712
00000000: 36f2 00be 9112 933d 4afc 353e 1af0 1d3d
00000010: 8273 a4be 560d 24be bb5a 83be 8873 c4be
00000020: a537 493f 6e7b b23f e729 c4bc fafb 5b3f
00000030: f651 bbbf 411b 83be 5465 f63f 666b 34bf
00000040: 615b 4abf c231 f93f 6efe 6f3f e799 16bf
00000050: 3781 98bf f12c 95bf c4f2 aa3f 0bc7 ab3f
00000060: f944 503f 939d a33e 7ba5 26bf 59ab 1240
00000070: a3c6 663f 844a a7bd 3688 7f3f 3e28 f3be
00000080: f008 ca3f 8c59 b7be 7331 e63f 4b23 d93e
00000090: 0936 fd3c 726e 8abf 7190 943f 0b52 a1be
000000a0: c218 bc3f ccfe 93be 8604 c73f d14f 12bf
000000b0: 7269 923f 7683 a63e 2c10 ae3e ee2b e93f
000000c0: 5027 9b3c d28c 243e d8cb 763f 77c8 4d3f
000000d0: 4664 8e3f cf93 64bf 189b 963f 03ff adbf
000000e0: 7e73 733f 67c4 913f fcf9 46be acc6 313f
000000f0: 6065 a13f fa3b ac3f f317 68bf 45eb 7dbf

l2.bias f4 [8]
-0.1918951 -0.38176736 0.60486436 -0.53614414 0.9773036 -0.4650529 -0.16019295 0.11409237
00000000: 2680 44be 0377 c3be 64d8 1a3f be40 09bf
00000010: 9230 7a3f 6a1b eebe 9f09 24be 43a9 e93d

l3.weight f4 [12, 8]
0.28343064 0.63332355 1.0745807 -3.0978284 -0.30795208 -1.7916492 -1.913856 -0.32493016
-0.28416914 -1.7775667 -1.4891162 -0.110774785 -0.31609812 0.22748308 0.04474892 0.0897546
0.11921039 0.6778477 0.5057563 -0.20472786 0.07939421 -1.7446806 0.92535156 -2.620299
-0.29227245 0.20156388 -0.5269016 -0.6038512 0.2948385 -0.5836018 0.6492529 -0.35436097
-0.004128166 -0.0671459 -1.0380231 -2.4515178 -0.59779614 -0.8568398 -1.5095183 1.360419
-0.33355036 -1.6157985 0.46236777 -1.7548866 1.3826252 -0.62134993 0.75237584 -2.194843
-0.33872652 0.76835436 0.32675147 -1.1348208 0.22450562 0.33869982 -2.1197257 -1.2010264
0.3176961 -1.9083098 -1.122594 0.8088229 -1.3605663 0.08946918 -2.4643986 0.4156824
0.077002265 -1.5239646 1.1149681 -1.7448031 -1.2060195 0.6883473 -1.8792081 -1.6628271
-0.022451222 0.393974 0.23591197 0.2489702 -1.7951499 -1.57887 -0.50062585 -0.2898025
0.27443102 -1.0162398 -1.3128935 -1.4375882 0.56827235 0.9339338 -2.488663 -0.23750323
-0.09577918 0.73445874 -1.8039445 0.3814041 -0.7059746 -1.2393836 -1.9592885 0.15864679
00000000: d21d 913e 7e21 223f dc8b 893f d242 46c0
00000010: e5ab 9dbe c354 e5bf 3cf9 f4bf 3f5d a6be
00000020: 9e7e 91be 4e87 e3bf 5c9b bebf e4dd e2bd
00000030: 9dd7 a1be 53f1 683e a54a 373d 42d1 b73d
00000040: 9424 f43d 6d87 2d3f 3f79 013f 2ea4 51be
00000050: 6e99 a23d b251 dfbf d7e3 6c3f fbb2 27c0
00000060: bca4 95be c366 4e3e 06e3 06bf fe95 1abf
00000070: 12f5 963e ed66 15bf 7035 263f cd6e b5be
00000080: 9145 87bb ca83 89bd f1dd 84bf abe5 1cc0
00000090: 2b09 19bf da59 5bbf e537 c1bf 3622 ae3f
000000a0: 1dc7 aabe 7cd2 cebf 78bb ec3e 20a0 e0bf
000000b0: ddf9 b03f ca10 1fbf b49b 403f 4f78 0cc0
000000c0: 906d adbe dfb2 443f f84b a73e cf41 91bf
000000d0: cde4 653e 106a ad3e 96a9 07c0 3cbb 99bf
000000e0: 10a9 a23e 7f43 f4bf 29b1 8fbf 040f 4f3f
000000f0: 0927 aebf 9e3b b73d b5b8 1dc0 53d4 d43e
00000100: 5db3 9d3d 4611 c3bf 46b7 8e3f b555 dfbf
00000110: d95e 9abf 8737 303f e489 f0bf 85d7 d4bf
00000120: a0eb b7bc f6b6 c93e e892 713e 0bf2 7e3e
00000130: 79c7 e5bf 6a18 cabf 0429 00bf fe60 94be
00000140: 3982 8c3e 2514 82bf e50c a8bf e402 b8bf
00000150: 4c7a 113f 4916 6f3f 4146 1fc0 0c34 73be
00000160: e027 c4bd 7d05 3c3f a7e7 e6bf 6647 c33e
00000170: c0ba 34bf 1fa4 9ebf f7c9 fabf 4e74 223e

l3.bias f4 [12]
0.27166668 -0.8360578 -0.2568753 -0.43275023 0.8461629 1.2009053 -0.56148994 0.051335983
-0.10007798 -0.18992661 -0.27365538 0.017843163
00000000: e517 8b3e e207 56bf 2985 83be 7091 ddbe
00000010: 229e 583f 44b7 993f cebd 0fbf ae45 523d
00000020: aff5 ccbd 1f7c 42be 8f1c 8cbe d32b 923c
